results/speech_recognition/Models/model.tflite (tflite, 404176 bytes, 3 tensors)

final_fc_weights/read/transpose i1 [7, 32000] scale=0.00034322872 zero_point=0
000000 ef 01 26 00 09 d7 05 e4 07 16 d2 1b e7 1a e1 0e
       -0.005834888 0.00034322872 0.013042691 0.0 0.0030890584 -0.014072377 0.0017161436 -0.009610404 0.002402601 0.0075510317 -0.015788522 0.009267176 -0.008580718 0.008923947 -0.01064009 0.004805202
000010 38 19 fd f4 cc fc 26 d9 f5 df f3 2d 07 fb fa cc
       0.019220809 0.008580718 -0.0010296862 -0.0041187447 -0.017847894 -0.0013729149 0.013042691 -0.01338592 -0.0037755158 -0.011326548 -0.0044619734 0.015445292 0.002402601 -0.0017161436 -0.0020593724 -0.017847894
000020 03 da 02 02 11 08 06 14 ed fb f4 fd 00 de f2 0a
       0.0010296862 -0.013042691 0.00068645744 0.00068645744 0.005834888 0.0027458298 0.0020593724 0.0068645743 -0.0065213456 -0.0017161436 -0.0041187447 -0.0010296862 0.0 -0.011669776 -0.004805202 0.0034322871
000030 c8 f0 d7 d1 2d 17 fa 00 13 fb fc 0f f9 f6 fe ea
       -0.019220809 -0.0054916595 -0.014072377 -0.01613175 0.015445292 0.007894261 -0.0020593724 0.0 0.0065213456 -0.0017161436 -0.0013729149 0.005148431 -0.002402601 -0.0034322871 -0.00068645744 -0.0075510317
000040 fd 29 0d f7 06 f4 fe 07 ff fb 09 24 ec 2d ea dc
       -0.0010296862 0.014072377 0.0044619734 -0.0030890584 0.0020593724 -0.0041187447 -0.00068645744 0.002402601 -0.00034322872 -0.0017161436 0.0030890584 0.012356234 -0.0068645743 0.015445292 -0.0075510317 -0.012356234
000050 05 05 ee e0 f5 e6 08 fd 23 f5 ff 21 f0 0c e6 fc
       0.0017161436 0.0017161436 -0.006178117 -0.010983319 -0.0037755158 -0.008923947 0.0027458298 -0.0010296862 0.012013005 -0.0037755158 -0.00034322872 0.011326548 -0.0054916595 0.0041187447 -0.008923947 -0.0013729149
000060 cd ef e9 ff 12 f9 21 0b f6 f1 e5 d8 c9 f7 e1 15
       -0.017504664 -0.005834888 -0.007894261 -0.00034322872 0.006178117 -0.002402601 0.011326548 0.0037755158 -0.0034322871 -0.005148431 -0.009267176 -0.013729149 -0.018877579 -0.0030890584 -0.01064009 0.007207803
000070 00 28 18 fb 27 25 e5 04 37 15 ed d1 d1 18 ea 0b
       0.0 0.013729149 0.0082374895 -0.0017161436 0.01338592 0.0126994625 -0.009267176 0.0013729149 0.018877579 0.007207803 -0.0065213456 -0.01613175 -0.01613175 0.0082374895 -0.0075510317 0.0037755158
000080 1a 0c 33 37 f0 13 21 13 36 37 ef 0e 05 ce e2 e4
       0.008923947 0.0041187447 0.017504664 0.018877579 -0.0054916595 0.0065213456 0.011326548 0.0065213456 0.018534351 0.018877579 -0.005834888 0.004805202 0.0017161436 -0.017161436 -0.010296862 -0.009610404
000090 21 25 03 08 ec cf f2 f8 fc 0d fc ff d4 e1 f3 2c
       0.011326548 0.0126994625 0.0010296862 0.0027458298 -0.0068645743 -0.016818207 -0.004805202 -0.0027458298 -0.0013729149 0.0044619734 -0.0013729149 -0.00034322872 -0.015102063 -0.01064009 -0.0044619734 0.015102063
0000a0 e0 14 e0 0f ea f8 11 e7 0a f2 09 17 e7 19 11 e3
       -0.010983319 0.0068645743 -0.010983319 0.005148431 -0.0075510317 -0.0027458298 0.005834888 -0.008580718 0.0034322871 -0.004805202 0.0030890584 0.007894261 -0.008580718 0.008580718 0.005834888 -0.009953633
0000b0 e5 23 dc 14 16 0f d7 1b 04 12 e1 01 dd f1 db 0d
       -0.009267176 0.012013005 -0.012356234 0.0068645743 0.0075510317 0.005148431 -0.014072377 0.009267176 0.0013729149 0.006178117 -0.01064009 0.00034322872 -0.012013005 -0.005148431 -0.0126994625 0.0044619734
0000c0 ef 05 05 05 22 00 e9 da d4 0c ff 04 d4 14 ed 26
       -0.005834888 0.0017161436 0.0017161436 0.0017161436 0.011669776 0.0 -0.007894261 -0.013042691 -0.015102063 0.0041187447 -0.00034322872 0.0013729149 -0.015102063 0.0068645743 -0.0065213456 0.013042691
0000d0 f8 26 fb f9 eb e1 eb 00 ef 24 d1 ee 01 f2 01 ec
       -0.0027458298 0.013042691 -0.0017161436 -0.002402601 -0.007207803 -0.01064009 -0.007207803 0.0 -0.005834888 0.012356234 -0.01613175 -0.006178117 0.00034322872 -0.004805202 0.00034322872 -0.0068645743
0000e0 2b 13 cf 10 06 fc 35 06 37 35 db f1 d0 1a 05 f8
       0.014758835 0.0065213456 -0.016818207 0.0054916595 0.0020593724 -0.0013729149 0.018191122 0.0020593724 0.018877579 0.018191122 -0.0126994625 -0.005148431 -0.016474979 0.008923947 0.0017161436 -0.0027458298
0000f0 d2 e5 05 24 0f e8 1b fa dc 27 e5 39 e9 36 26 ff
       -0.015788522 -0.009267176 0.0017161436 0.012356234 0.005148431 -0.0082374895 0.009267176 -0.0020593724 -0.012356234 0.01338592 -0.009267176 0.019564036 -0.007894261 0.018534351 0.013042691 -0.00034322872

first_weights/read i1 [1, 20, 8, 64]
000000 f3 dc 18 e4 3e fa 35 cc f4 e0 69 2b e1 43 16 14
       -13 -36 24 -28 62 -6 53 -52 -12 -32 105 43 -31 67 22 20
000010 a5 ef d3 b0 f1 14 97 ff 10 25 c5 04 34 1a 9c 02
       -91 -17 -45 -80 -15 20 -105 -1 16 37 -59 4 52 26 -100 2
000020 f0 fe eb 47 d7 d1 7f 70 0e 05 ee 26 e7 22 17 dc
       -16 -2 -21 71 -41 -47 127 112 14 5 -18 38 -25 34 23 -36
000030 b8 1b e0 e2 e4 1f 3a aa db 01 e8 d2 21 c5 f4 0d
       -72 27 -32 -30 -28 31 58 -86 -37 1 -24 -46 33 -59 -12 13
000040 4b cb f0 ea 7c d6 f5 ec 06 eb 07 b4 13 46 00 e9
       75 -53 -16 -22 124 -42 -11 -20 6 -21 7 -76 19 70 0 -23
000050 ba ee ce 6c 16 0e cc e6 f2 eb f4 33 f4 42 f6 1c
       -70 -18 -50 108 22 14 -52 -26 -14 -21 -12 51 -12 66 -10 28
000060 d6 0f fc 16 c7 cf 2d 37 cc 14 1d e3 f8 21 be 0a
       -42 15 -4 22 -57 -49 45 55 -52 20 29 -29 -8 33 -66 10
000070 e6 7b db 24 18 53 48 b0 e7 fc 10 f0 4a e7 06 32
       -26 123 -37 36 24 83 72 -80 -25 -4 16 -16 74 -25 6 50
000080 0f 06 fe f5 3c e0 07 16 f3 d0 58 a0 ee 36 24 eb
       15 6 -2 -11 60 -32 7 22 -13 -48 88 -96 -18 54 36 -21
000090 ff 13 da ca 23 cf ff 04 02 fc c8 fc f7 2d ef e5
       -1 19 -38 -54 35 -49 -1 4 2 -4 -56 -4 -9 45 -17 -27
0000a0 ef 23 fe 0f c2 be 43 14 ee 1b f3 a7 a3 f8 3c 7f
       -17 35 -2 15 -62 -66 67 20 -18 27 -13 -89 -93 -8 60 127
0000b0 f3 03 2a f1 10 e2 54 d0 dc d2 c0 df 1c c4 e1 e7
       -13 3 42 -15 16 -30 84 -48 -36 -46 -64 -33 28 -60 -31 -25
0000c0 e4 1c de 10 f3 47 17 24 e3 df 24 20 33 e4 fa 22
       -28 28 -34 16 -13 71 23 36 -29 -33 36 32 51 -28 -6 34
0000d0 b5 13 e7 ec 62 29 0d 3d e9 a9 0e a4 f4 07 ff d4
       -75 19 -25 -20 98 41 13 61 -23 -87 14 -92 -12 7 -1 -44
0000e0 f5 04 1f 00 0f 02 1b ed f7 18 cf e6 d8 e6 fb 21
       -11 4 31 0 15 2 27 -19 -9 24 -49 -26 -40 -26 -5 33
0000f0 25 5d 4f 20 f2 5f 4d fa 04 02 08 ea 14 f8 2a f1
       37 93 79 32 -14 95 77 -6 4 2 8 -22 20 -8 42 -15

second_weights/read i1 [64, 10, 4, 64]
000000 0e d9 51 f3 c2 10 3a b5 19 fb d3 da 2d 2a ed f5
       14 -39 81 -13 -62 16 58 -75 25 -5 -45 -38 45 42 -19 -11
000010 da 23 21 00 37 fc 43 03 b0 ef 53 33 e8 21 5b 2f
       -38 35 33 0 55 -4 67 3 -80 -17 83 51 -24 33 91 47
000020 0c 19 08 26 01 cc 1f ee ce 04 3a ff e1 31 27 56
       12 25 8 38 1 -52 31 -18 -50 4 58 -1 -31 49 39 86
000030 da fc 0c fb e7 f1 fa ee d1 06 30 f4 25 3a 0a 2f
       -38 -4 12 -5 -25 -15 -6 -18 -47 6 48 -12 37 58 10 47
000040 25 d7 d2 16 49 3f c6 b4 2e 16 e9 d2 fa 0a 04 ac
       37 -41 -46 22 73 63 -58 -76 46 22 -23 -46 -6 10 4 -84
000050 ce 35 28 f1 b5 26 dc 42 16 fb 53 e7 24 00 08 2e
       -50 53 40 -15 -75 38 -36 66 22 -5 83 -25 36 0 8 46
000060 98 f0 ef 28 21 ec e9 f7 02 16 fb ca 1a ea de 16
       -104 -16 -17 40 33 -20 -23 -9 2 22 -5 -54 26 -22 -34 22
000070 e0 fc 26 bb 4e ec 14 cf f3 9d e8 f7 dd dd 24 f4
       -32 -4 38 -69 78 -20 20 -49 -13 -99 -24 -9 -35 -35 36 -12
000080 f0 f9 9b 2d 3d fb d1 3c d6 c9 1c 20 2b e2 08 36
       -16 -7 -101 45 61 -5 -47 60 -42 -55 28 32 43 -30 8 54
000090 13 f8 ee 2e 22 f4 02 02 22 0a ce 1b f8 06 31 de
       19 -8 -18 46 34 -12 2 2 34 10 -50 27 -8 6 49 -34
0000a0 2b 2b f3 d3 b3 fc a7 03 2b 21 ea eb fa f3 05 f7
       43 43 -13 -45 -77 -4 -89 3 43 33 -22 -21 -6 -13 5 -9
0000b0 e3 1c 23 f5 fc 36 d3 50 b4 eb e6 44 f7 04 f8 26
       -29 28 35 -11 -4 54 -45 80 -76 -21 -26 68 -9 4 -8 38
0000c0 22 1e 20 11 bd 22 1d 26 e2 05 ef 10 3e e4 9d 5a
       34 30 32 17 -67 34 29 38 -30 5 -17 16 62 -28 -99 90
0000d0 e8 21 f5 f0 da 30 ee 39 3e 05 38 20 57 ce e2 ea
       -24 33 -11 -16 -38 48 -18 57 62 5 56 32 87 -50 -30 -22
0000e0 dc 4f 2b 26 d4 ba 48 fb 04 d0 c3 f5 03 3f fb 2c
       -36 79 43 38 -44 -70 72 -5 4 -48 -61 -11 3 63 -5 44
0000f0 e5 28 33 15 f7 e7 e8 0c c7 1d fa b2 cc 37 30 1d
       -27 40 51 21 -9 -25 -24 12 -57 29 -6 -78 -52 55 48 29
